vehicle/autoware_raw_vehicle_cmd_converter/src/vehicle_adaptor/autoware_vehicle_adaptor/vehicle_models/vehicle_model_1.pth (torch, 56302 bytes, 30 tensors)

weight f4 [16, 20]
-9.392657e-08 1.13246195e-07 -2.5476754e-07 1.5999248e-07 9.478913e-08 -4.5751816e-09 -4.831635e-08 1.4858497e-07
1.4774197e-07 -1.06412294e-07 -1.6213872e-07 -1.3132632e-08 8.1586535e-08 5.3241886e-09 -8.180826e-08 6.055771e-08
1.8390277e-07 1.3920095e-07 -1.2125244e-07 -1.0050711e-07 0.015398615 -6.441271e-06 -0.0030425326 -0.002788783
-0.0020514932 -0.0018712557 -0.0012706083 -0.0010065286 -0.0013179192 -0.00097476476 -0.0010233929 -0.0011465499
-0.0011424106 -0.0013739322 -0.0017296475 -0.0015659978 -0.0017894392 -0.0021613687 -0.0024335932 -0.0023028702
0.08180957 0.00024014655 0.007613184 0.008024999 0.0067348178 0.0070006545 0.0070325406 0.0051649455
0.005187746 0.004742923 0.0036440112 0.0054981867 0.008830439 0.009920793 0.011040175 0.014472458
0.0065320344 0.0062878956 0.018668642 0.032493338 0.10360608 -0.093837634 0.39617014 0.3135542
0.25615165 0.2211262 0.18387389 0.17558223 0.1521424 0.13564786 0.13529745 0.12935959
0.13346915 0.19084549 0.2596003 0.31583717 0.3888208 0.41267818 0.45200393 0.5524361
0.0063704564 5.838154e-06 5.411814e-06 5.975247e-06 5.7543366e-06 5.8523715e-06 5.7790066e-06 5.7871043e-06
5.384675e-06 5.83126e-06 5.320889e-06 5.9023723e-06 5.506724e-06 5.039249e-06 5.1236198e-06 5.157869e-06
4.87512e-06 5.1050642e-06 4.652431e-06 4.8078186e-06 8.516146e-08 -9.730037e-08 5.5955823e-08 5.232065e-08
1.727786e-07 -2.6720706e-08 -5.9523735e-08 1.11232765e-07 5.2357734e-08 1.8359525e-07 2.959022e-08 -6.209597e-08
3.4632404e-07 2.0032248e-07 2.8526296e-08 -5.1410954e-08 8.897377e-08 -4.5306624e-08 -2.5114605e-07 -2.2152415e-07
-2.185223e-07 8.715367e-09 -8.941707e-08 6.100429e-08 -1.5969496e-07 2.2835292e-07 1.8433376e-08 1.4528307e-07
8.646095e-08 9.9453466e-08 4.088428e-08 -1.849606e-08 -1.1749882e-08 -1.4800746e-07 -7.528541e-08 2.3912224e-07
-2.3352273e-07 1.1923224e-08 -5.5856617e-08 6.6942887e-09 0.10829547 0.14859462 -0.29443002 -0.19907443
-0.15156275 -0.13953497 -0.11888861 -0.108798735 -0.089453004 -0.062291417 -0.083281845 -0.12459663
-0.13476774 -0.16338901 -0.1780893 -0.18747865 -0.22389467 -0.27141047 -0.30020246 -0.36177012
-0.014520884 -0.012910009 0.275806 0.21703266 0.17201406 0.13296933 0.09834441 0.0940771
0.087335356 0.0788806 0.08045107 0.07759823 0.062064596 0.081624635 0.13575135 0.19523938
0.27455643 0.3418684 0.38163522 0.44499218 0.15551268 4.9422913e-05 0.0032520946 0.0042838277
0.0031210813 0.0047434275 0.008670741 0.0147581585 0.027301239 0.053070866 0.04935408 0.05122341
0.062018704 0.05367451 0.046060976 0.05056192 0.04034273 0.04892267 0.09217821 0.14772177
0.013598467 5.856625e-06 5.425418e-06 5.5251703e-06 5.686889e-06 5.690414e-06 5.739725e-06 5.5473406e-06
5.505259e-06 5.787338e-06 5.9205986e-06 6.1232245e-06 6.156286e-06 6.3820758e-06 6.5426957e-06 6.683953e-06
6.8066824e-06 6.513089e-06 6.930592e-06 6.63112e-06 0.015277002 -6.261364e-06 -0.0010672358 -0.0008454214
-0.00014824736 -5.280307e-06 -5.389592e-06 -5.395929e-06 -5.3379053e-06 -5.505023e-06 -5.7834995e-06 -5.844024e-06
-5.984409e-06 -6.114752e-06 -5.3461466e-05 -2.5125864e-05 -0.0001585171 -0.00061198714 -0.0010142864 -0.0008714801
0.009469552 2.0139657e-06 1.63787e-06 2.0218506e-06 1.9740376e-06 2.1339745e-06 1.9531697e-06 1.8747411e-06
2.195643e-06 2.1949086e-06 1.9125573e-06 2.020387e-06 2.0480911e-06 1.7308514e-06 1.8484193e-06 1.954839e-06
00000000: aeb4 c9b3 c131 f333 fcc6 88b4 66ca 2b34
00000010: e08e cb33 b933 9db1 6384 4fb3 ba8a 1f34
00000020: 01a3 1e34 c784 e4b3 5a18 2eb4 ed9d 61b2
00000030: ac34 af33 0ff0 b631 91ae afb3 f40b 8233
00000040: cf76 4534 4477 1534 9e31 02b4 5ed6 d7b3
00000050: 794a 7c3c 1922 d8b6 3a65 47bb 04c4 36bb
00000060: 5872 06bb ec44 f5ba 8a8a a6ba 7fed 83ba
00000070: 08be acba 5b87 7fba 5e23 86ba d547 96ba
00000080: f0bc 95ba 8415 b4ba 57b5 e2ba 2b42 cdba
00000090: 9e8b eaba c0a5 0dbb eb7c 1fbb c0eb 16bb
000000a0: c78b a73d d9cf 7b39 0478 f93b 497b 033c
000000b0: bfaf dc3b bf65 e53b 3a71 e63b b43e a93b
000000c0: f8fd a93b 866a 9b3b 5dd0 6e3b 222a b43b
000000d0: 8cad 103c d28a 223c dae1 343c e31d 6d3c
000000e0: ad0a d63b b10a ce3b fbee 983c bc17 053d
000000f0: 6d2f d43d f22d c0bd d0d6 ca3e 2d8a a03e
00000100: 4f26 833e e86e 623e 7049 3c3e d4cb 333e
00000110: 38cb 1b3e 46e7 0a3e 6a8b 0a3e d776 043e
00000120: 23ac 083e 006d 433e 55ea 843e 69b5 a13e
00000130: 8513 c73e 8e4a d33e 0f6d e73e 746c 0d3f
00000140: 43bf d03b 5ce5 c336 2197 b536 fb7e c836
00000150: 6015 c136 7d5f c436 4ae9 c136 d92e c236
00000160: 02ae b436 24aa c336 178a b236 fe0c c636
00000170: 66c6 b836 d216 a936 8feb ab36 c211 ad36
00000180: f694 a336 2b4c ab36 141c 9c36 d952 a136
00000190: 02e2 b633 72f3 d0b3 1454 7033 2ab7 6033
000001a0: 0585 3934 7487 e5b2 0aa7 7fb3 dcde ee33
000001b0: f0df 6033 4722 4534 952d fe32 9f59 85b3
000001c0: 6aee b934 3918 5734 fd09 f532 f1ce 5cb3
000001d0: d911 bf33 2997 42b3 40d5 86b4 18dc 6db4
000001e0: f4a2 6ab4 97ba 1532 8e05 c0b3 7701 8333
000001f0: 9e78 2bb4 2c31 7534 6c57 9e32 1bff 1b34
00000200: 69ac b933 1f93 d533 be98 2f33 44e1 9eb2
00000210: 87dc 49b2 fbeb 1eb4 98ac a1b3 b660 8034
00000220: 3dbe 7ab4 e5d6 4c32 00e7 6fb3 9603 e631
00000230: 04ca dd3d 3029 183e 88bf 96be 2bda 4bbe
00000240: 4433 1bbe 41e2 0ebe df7b f3bd dfd1 debd
00000250: 2333 b7bd 4925 7fbd ac8f aabd 852c ffbd
00000260: 8e00 0abe 734f 27be 0b5d 36be 67fa 3fbe
00000270: a544 65be 50f6 8abe 23b4 99be ef39 b9be
00000280: 00e9 6dbc 8184 53bc 7236 8d3e cf3d 5e3e
00000290: 7424 303e 1d29 083e cb68 c93d 7fab c03d
000002a0: e1dc b23d 278c a13d 88c3 a43d d2eb 9e3d
000002b0: 7237 7e3d d12a a73d 6702 0b3e d5ec 473e
000002c0: a992 8c3e 6009 af3e b165 c33e 04d6 e33e
000002d0: b73e 1f3e 734b 4f38 1821 553b 5a5f 8c3b
000002e0: 0e8b 4c3b c16e 9b3b b90f 0e3c 34cc 713c
000002f0: d9a6 df3c d660 593d 8127 4a3d a3cf 513d
00000300: 5307 7e3d ced9 5b3d 6faa 3c3d 041a 4f3d
00000310: 6b3e 253d 2363 483d eec7 bc3d 6044 173e
00000320: 1bcc 5e3c 0784 c436 fc0b b636 da64 b936
00000330: 01d2 be36 49f0 be36 dd97 c036 4b23 ba36
00000340: d1b9 b836 db30 c236 8ea9 c636 1976 cd36
00000350: 1892 ce36 9d25 d636 5489 db36 b846 e036
00000360: f564 e436 028b da36 558d e836 e380 de36
00000370: 644c 7a3c b518 d2b6 7ee2 8bba 459f 5dba
00000380: d972 1bb9 7e2d b1b6 3ed8 b4b6 ad0e b5b6
00000390: 421c b3b6 cab7 b8b6 e20f c2b6 c917 c4b6
000003a0: afcd c8b6 522d cdb6 d03b 60b8 62c5 d2b7
000003b0: 9c37 26b9 c36d 20ba cef1 84ba 0a74 64ba
000003c0: 2e26 1b3c ab27 0736 c9d4 db35 21af 0736
000003d0: b579 0436 6735 0f36 3313 0336 9d9f fb35
000003e0: dc58 1336 3e4c 1336 7c59 0036 fc95 0736
000003f0: f071 0936 9a4f e835 3417 f835 e12f 0336

bias f4 [16]
1.6273623e-07 0.006035947 -0.29375276 0.20208862 5.063434e-06 3.5155846e-08 1.7147231e-07 0.113909826
0.19973421 -0.36201972 -2.40847e-05 0.0052521746 1.273456e-05 0.003643905 5.686417e-08 0.005573824
00000000: 98bc 2e34 31c9 c53b c366 96be 52f0 4e3e
00000010: 91e6 a936 43fe 1633 f31d 3834 8e49 e93d
00000020: 2087 4c3e a65a b9be 8009 cab7 6f1a ac3b
00000030: 85a6 5537 95ce 6e3b d13a 7433 a0a4 b63b

weight f4 [16, 20]
7.057399e-08 -1.5480575e-07 1.8648575e-07 -9.720329e-08 -1.3959796e-07 -6.264956e-08 -6.3299694e-08 -2.2195525e-07
1.790707e-07 1.3810963e-07 -6.378024e-08 -9.372077e-08 -1.6235997e-07 -1.2862208e-07 1.8485429e-07 3.242469e-08
9.968982e-08 -1.1798837e-07 1.02847174e-07 8.1891365e-08 -5.6975985e-08 -8.8147274e-08 1.3548382e-09 1.0764874e-07
6.9372166e-09 -8.173486e-08 3.2156544e-09 8.573335e-08 -3.679693e-08 9.865276e-08 -5.3617093e-08 -1.02462174e-07
-6.17964e-08 -1.304218e-07 2.5040907e-07 1.262261e-07 -4.7378673e-08 2.7963344e-07 -5.521688e-10 3.074513e-08
-2.0975401e-08 -3.2146443e-07 -2.1641435e-08 6.342054e-08 2.2590186e-07 -5.3315983e-08 1.1488936e-07 1.3567137e-07
8.695843e-08 -7.301129e-08 9.827471e-08 -5.2977136e-08 3.9613772e-07 1.7249378e-07 2.416855e-07 6.190924e-08
4.537794e-08 -3.4353043e-08 -5.263454e-08 -2.1022409e-08 0.05805254 0.35072932 0.38097402 0.3812551
0.37489337 0.36872742 0.37344941 0.36848262 0.36214942 0.36688438 0.36436716 0.35879415
0.36417514 0.36117053 0.3551674 0.36116558 0.35806417 0.35073805 0.35456222 0.35057247
-4.5424425e-08 1.6592541e-07 2.2656357e-07 2.4049427e-07 1.5900058e-07 4.7009134e-09 2.8171767e-08 1.4024351e-07
-8.808141e-08 1.7428503e-07 8.1853145e-08 -2.0370474e-09 7.7337575e-08 -6.3866e-08 -1.5377358e-07 2.2805166e-08
-6.069787e-08 -1.5453476e-07 2.5325684e-07 2.4624933e-09 -7.908871e-09 1.6620116e-07 -7.16938e-08 3.6265924e-08
-1.8336243e-07 8.633356e-08 1.861996e-08 -1.04856724e-07 6.35275e-08 1.219602e-07 3.2062573e-08 7.636658e-08
2.1779967e-07 -1.6415969e-07 -7.128108e-08 7.555644e-08 -3.7876394e-08 -1.404522e-07 1.0478489e-07 -8.609263e-08
-1.1808576e-07 9.1979615e-08 1.0567901e-07 -1.7088404e-07 -6.2611726e-08 -1.5991895e-07 1.0309044e-07 -7.0233426e-08
-5.7605622e-09 3.8043328e-07 1.1215978e-07 -8.403994e-09 1.674343e-07 -2.147145e-07 1.5210108e-07 -9.7896105e-08
-2.734659e-08 5.26573e-08 1.6316326e-07 7.558469e-08 0.063644804 -0.31129816 -0.6520744 -0.6241044
-0.5897571 -0.5573032 -0.53140455 -0.49827543 -0.4650943 -0.43959954 -0.40869528 -0.37472573
-0.3511437 -0.3196216 -0.28475493 -0.25597 -0.21967436 -0.18066716 -0.1474024 -0.10620122
1.4161591e-07 -6.9309976e-08 -8.199788e-08 -3.4889316e-10 -3.9031906e-07 -2.5493432e-07 1.18660736e-07 -2.5929786e-08
2.7614293e-08 9.9506195e-08 -1.1770256e-07 -9.396563e-08 -1.2144753e-07 -8.811728e-08 -1.7144718e-07 1.1697914e-07
8.601448e-08 2.8924783e-08 6.284755e-08 -4.122766e-08 0.09441588 0.0048290608 0.00024706105 0.00067168364
0.00052719214 0.00033201475 0.0010322687 0.00089030876 0.000965576 0.0018985233 0.0020778328 0.002439574
0.0033007346 0.0036199722 0.0036996242 0.004639623 0.004807786 0.004593692 0.0052578943 0.005596004
0.037641905 -0.2917296 -0.6318324 -0.6035068 -0.5702232 -0.5380202 -0.5121148 -0.47970486
-0.4473499 -0.42126498 -0.39071035 -0.3580514 -0.3341193 -0.302085 -0.26709038 -0.23787251
-0.20178594 -0.16333795 -0.12954819 -0.089087255 1.02058365e-07 -5.435501e-08 -4.428471e-09 -7.609489e-08
-3.22228e-07 1.5430946e-07 1.3935646e-07 7.6839996e-08 2.703647e-07 4.7012294e-10 -2.3188953e-07 2.4953183e-08
1.5226101e-08 7.691506e-08 9.4049625e-08 -2.8995613e-08 -1.845343e-08 -1.4597072e-07 6.384268e-08 -1.17667526e-07
1.1936638e-07 1.0405476e-07 -1.2677079e-07 -1.0303916e-07 -8.156028e-08 -3.4999932e-09 -1.2146257e-08 1.17493315e-07
2.590817e-08 9.859396e-08 -3.900619e-08 -3.8692725e-08 1.0189082e-07 -6.6471023e-10 -2.772994e-07 -2.3334333e-07
00000000: 768e 9733 ae38 26b4 d03c 4834 13be d0b3
00000010: 65e4 15b4 f689 86b3 60ef 87b3 9852 6eb4
00000020: 9446 4034 494b 1434 8ff7 88b3 8a43 c9b3
00000030: 2b55 2eb4 5e1b 0ab4 5c7c 4634 5343 0b33
00000040: 0f15 d633 cb60 fdb3 d5dc dc33 41dc af33
00000050: c2b5 74b3 7a4b bdb3 2235 ba30 852c e733
00000060: 675c ee31 3786 afb3 64fa 5c31 681c b833
00000070: a70a 1eb3 eeda d333 9e48 66b3 2d09 dcb3
00000080: eeb4 84b3 120a 0cb4 f66f 8634 c488 0734
00000090: 677d 4bb3 8720 9634 6dc7 17b0 a10c 0433
000000a0: 652d b4b2 bc95 acb4 05e6 b9b2 d031 8833
000000b0: 6e8f 7234 8bfd 64b3 18b9 f633 10ad 1134
000000c0: e7bd ba33 62ca 9cb3 180b d333 fa88 63b3
000000d0: c1ac d434 bb36 3934 01c1 8134 f7f2 8433
000000e0: 93e5 4233 928b 13b3 4a10 62b3 c494 b4b2
000000f0: 80c8 6d3d cb92 b33e 070f c33e de33 c33e
00000100: 06f2 bf3e d7c9 bc3e c334 bf3e c1a9 bc3e
00000110: a66b b93e 45d8 bb3e 558e ba3e deb3 b73e
00000120: 2a75 ba3e 58eb b83e 80d8 b53e b2ea b83e
00000130: 3054 b73e f093 b33e 2e89 b53e 3c7e b33e
00000140: af18 43b3 3b29 3234 5245 7334 481d 8134
00000150: bfb9 2a34 ac85 a131 5ffe f132 d895 1634
00000160: 4427 bdb3 1b23 3b34 3ec7 af33 1efc 0bb1
00000170: c814 a633 b426 89b3 f61c 25b4 17e5 c332
00000180: 0259 82b3 31ee 25b4 5bf7 8734 a438 2931
00000190: 95df 07b2 0775 3234 15f6 99b3 cec2 1b33
000001a0: 48e2 44b4 6066 b933 baf1 9f32 982d e1b3
000001b0: 9d6c 8833 2af4 0234 2cb5 0933 f9fe a333
000001c0: 51dc 6934 df43 30b4 3013 99b3 9841 a233
000001d0: 89ad 22b3 35cf 16b4 1a06 e133 ede1 b8b3
000001e0: 5596 fdb3 5486 c533 a6f1 e233 3f7c 37b4
000001f0: 2975 86b3 30b6 2bb4 9262 dd33 3cd3 96b3
00000200: 71ee c5b1 5a3e cc34 7edc f033 2861 10b2
00000210: fdc7 3334 468c 66b4 3a51 2334 f43a d2b3
00000220: cae7 eab2 5029 6233 fa31 2f34 1f51 a233
00000230: 3558 823d 7962 9fbe 59ee 26bf 4ec5 1fbf
00000240: 52fa 16bf 6cab 0ebf 210a 08bf f51d ffbe
00000250: d720 eebe 3113 e1be 8240 d1be 0ddc bfbe
00000260: 1bc9 b3be 71a5 a3be 66cb 91be 800e 83be
00000270: 51f2 60be d000 39be a8f0 16be 0680 d9bd
00000280: 160f 1834 90d7 94b3 d016 b0b3 59ce bfaf
00000290: 0b8d d1b4 e8dd 88b4 6ed2 fe33 34bc deb2
000002a0: 7934 ed32 1cb0 d533 abc3 fcb3 27ca c9b3
000002b0: 3e67 02b4 fd3a bdb3 0b17 38b4 f635 fb33
000002c0: f6b6 b833 4576 f832 cef6 8633 4b12 31b3
000002d0: 1d5d c13d 193d 9e3b f987 8139 ed13 303a
000002e0: 4433 0a3a 4412 ae39 314d 873a 9c63 693a
000002f0: b51e 7d3a dfd7 f83a 402c 083b 43e1 1f3b
00000300: 2351 583b 0e3d 6d3b 6575 723b fb07 983b
00000310: a28a 9d3b ae86 963b 6a4a ac3b af5e b73b
00000320: 662e 1a3d 955d 95be c5bf 21bf 6c7f 1abf
00000330: 26fa 11bf b1bb 09bf f519 03bf e09b f5be
00000340: 0c0b e5be 0bb0 d7be 300b c8be 8352 b7be
00000350: af11 abbe e3aa 9abe 12c0 88be da94 73be
00000360: f9a0 4ebe 1042 27be 48a8 04be 6173 b6bd
00000370: 2e2b db33 f773 69b3 3e29 98b1 9c69 a3b3
00000380: aefe acb4 43b0 2534 03a2 1534 3c03 a533
00000390: a426 9134 f639 0130 4ffd 78b4 a158 d632
000003a0: 8dca 8232 802c a533 54f8 c933 0712 f9b2
000003b0: 8683 9eb2 20bc 1cb4 e219 8933 68b0 fcb3
000003c0: 2e2b 0034 b674 df33 7d1e 08b4 6146 ddb3
000003d0: 3d26 afb3 8884 70b1 ceab 50b2 a250 fc33
000003e0: ab8c de32 9aba d333 c287 27b3 1a2f 26b3
000003f0: 12cf da33 d3b6 36b0 bddf 94b4 ed8c 7ab4

bias f4 [16]
-1.4795114e-07 1.9189237e-08 1.4450357e-07 0.05634922 3.7401276e-07 1.6061124e-07 -2.7540852e-09 0.13617907
-7.343795e-08 0.066709325 0.101076365 -1.1161916e-07 -1.7095492e-07 3.5185266e-08 2.4574867e-08 3.4446188e-08
00000000: 80dc 1eb4 94d5 a432 d728 1b34 71ce 663d
00000010: eccb c834 7b74 2c34 6142 3db1 8772 0b3e
00000020: f1b4 9db3 e69e 883d 2001 cf3d 48b3 efb3
00000030: bb8f 37b4 9c1e 1733 b418 d332 fcf1 1333

weight f4 [8, 16]
-1.5471706e-07 3.8773065e-05 0.00010736716 0.33028945 6.2273866e-06 5.3823864e-08 -6.991573e-09 -0.64741844
0.2863461 0.00023964442 3.0463223e-05 5.0884068e-05 1.3760594e-05 5.5689026e-05 -2.9230253e-07 3.7201775e-05
-3.5705744e-07 0.026996449 -0.05167213 -0.024878249 0.0102096265 -5.9908274e-08 -6.9865564e-08 0.16541685
-0.0609456 -0.058048822 -0.017706575 0.025951223 0.015296136 0.023803564 5.638807e-08 0.026782071
-5.4504345e-10 -0.025088083 0.023546204 -0.037220392 -5.811142e-06 -5.1806175e-08 3.1794436e-08 0.06540721
-0.026212433 0.007248976 0.012657598 -0.023996131 2.8669463e-05 -0.022288723 -1.5975142e-07 -0.024977034
9.106175e-08 -0.008711819 0.03328473 0.0034534608 -1.0328999e-05 4.5398362e-08 -7.193774e-08 0.07705196
-0.08465581 0.022932786 -0.0030014326 -0.0072288737 -1.27184385e-05 -0.0047332775 -1.6920092e-07 -0.008592156
1.8219919e-07 0.0007877706 -0.07944562 -1.1152792 1.608312e-05 -3.6832684e-08 4.061289e-08 0.4045278
1.3591601e-09 -0.21214956 -0.0043027713 0.0008482169 1.4462036e-05 0.0007616933 1.1803438e-07 0.0007439341
2.2351934e-07 0.00046180352 0.25059226 0.011613424 -5.040494e-06 -9.456968e-09 8.819092e-08 -0.047072686
-0.09174448 0.20522754 0.008188562 0.00055802445 3.898391e-05 0.0006541964 3.0164625e-08 0.0004130908
-1.9662635e-07 -7.39379e-05 -0.15129888 -0.54309815 0.003068706 -1.2111875e-07 -1.653935e-07 -0.1084542
-0.32982916 -0.29347306 0.0029911215 0.0005589271 0.0036828583 0.0025710394 1.05728915e-07 -5.4469772e-05
-4.3320146e-08 -0.0018674618 0.0565525 -0.027453411 2.5433908e-06 -7.630951e-08 -3.7514194e-08 0.21611561
-0.41196886 0.16749004 -4.447589e-06 -0.0005427583 0.0017983783 -4.0884875e-06 -3.9665466e-07 -0.0017045172
00000000: 4d20 26b4 43a0 2238 4e2a e138 b31b a93e
00000010: d8f4 d036 f72b 6733 873a f0b1 37bd 25bf
00000020: f59b 923e 0f49 7b39 468b ff37 5a6c 5538
00000030: 4ddd 6637 a393 6938 c1ed 9cb4 1a09 1c38
00000040: 9ab1 bfb4 a827 dd3c 28a6 53bd 78cd cbbc
00000050: 4746 273c eca6 80b3 0009 96b3 0963 293e
00000060: 18a2 79bd 9ac4 6dbd 610d 91bc a997 d43c
00000070: a59c 7a3c b1ff c23c 572f 7233 1366 db3c
00000080: 06d2 15b0 8685 cdbc f8e3 c03c 6974 18bd
00000090: 54fd c2b6 7e81 5eb3 5a8e 0833 37f4 853d
000000a0: 75bb d6bc d188 ed3b d061 4f3c 8993 c4bc
000000b0: 347f f037 d796 b6bc 2388 2bb4 a39c ccbc
000000c0: ba8d c333 04bc 0ebc 9255 083d 7553 623b
000000d0: b74a 2db7 07fc 4233 317c 9ab3 6bcd 9d3d
000000e0: 0660 adbd 8add bb3c afb3 44bb 30e0 ecbb
000000f0: 4761 55b7 9c19 9bbb 98ad 35b4 1dc6 0cbc
00000100: 88a2 4334 6482 4e3a 63b4 a2bd 78c1 8ebf
00000110: 3dea 8637 f731 1eb3 586e 2e33 451e cf3e
00000120: 32cd ba30 bc3d 59be 43fe 8cbb df5a 5e3a
00000130: f9a1 7237 5fac 473a 167a fd33 9304 433a
00000140: 8700 7034 381e f239 a14d 803e 3b46 3e3c
00000150: 8421 a9b6 2f78 22b2 7963 bd33 4acf 40bd
00000160: 88e4 bbbd 2b27 523e 5129 063c 6348 123a
00000170: a882 2338 617e 2b3a 5b8e 0133 1c94 d839
00000180: 3d20 53b4 1c0f 9bb8 18ee 1abe 7b08 0bbf
00000190: 581c 493b de0c 02b4 0597 31b4 3c1d debd
000001a0: 5edf a8be 1a42 96be b106 443b f684 123a
000001b0: 1c5c 713b e27e 283b 160d e333 7976 64b8
000001c0: 010f 3ab3 9fc5 f4ba 98a3 673d fae5 e0bc
000001d0: 1faf 2a36 99df a3b3 4b1f 21b3 694d 5d3e
000001e0: 95ed d2be 8282 2b3e 803c 95b6 e547 0eba
000001f0: 90b7 eb3a d72f 89b6 cdf3 d4b4 1b6a dfba

bias f4 [8]
-0.038760632 0.034329377 -0.020359747 -0.04323687 0.037266303 -0.06240076 0.4913057 -0.001262468
00000000: 78c3 1ebd f69c 0c3d 7cc9 a6bc 2519 31bd
00000010: 8da4 183d f097 7fbd 6c8c fb3e 6679 a5ba

weight f4 [8, 16]
-2.3073186e-08 -7.1125555e-08 6.2285885e-08 2.183643e-07 2.1387879e-07 1.7941719e-07 1.08943794e-07 -2.993267e-08
-7.701608e-08 4.0676046e-08 1.5924992e-07 -1.2609264e-07 4.164403e-08 1.3242964e-08 -7.594249e-08 -1.044226e-07
-8.2128544e-08 -1.8587247e-07 -1.6015719e-07 0.15456752 -9.964523e-08 7.178782e-08 1.2393241e-07 0.44915855
-5.5045184e-08 -0.12426389 0.4249577 1.5854667e-07 2.1025019e-07 -1.6575618e-07 3.7875335e-08 -1.9665298e-07
-2.4702487e-07 -6.590579e-08 1.6116395e-07 -0.041204054 -7.92949e-08 1.687658e-07 6.674358e-08 0.16283093
-2.0590593e-07 -0.11251442 0.15625401 -2.818972e-07 -2.4206847e-07 8.7748674e-08 -1.191078e-07 1.8407542e-08
-7.423709e-08 1.2242923e-08 1.3295102e-07 -1.5143627e-07 -2.7462425e-08 -4.8888273e-07 -1.843452e-07 -1.0126559e-07
5.503205e-08 -1.569508e-07 1.7721763e-07 1.577574e-09 5.1055578e-09 1.17925325e-07 -7.40807e-08 -8.151638e-08
6.5865564e-08 1.4540586e-07 -1.1880379e-08 0.00047259958 2.5465519e-09 2.1202052e-07 -6.6050005e-09 0.0029526507
1.8969068e-07 0.004944501 6.7679364e-05 -1.3964954e-07 -6.76408e-08 1.7410726e-07 -9.30116e-08 6.386972e-08
-7.8403e-08 2.2716594e-07 -9.4725415e-08 0.45865333 -9.880833e-08 9.086033e-08 -1.331492e-07 -0.38407046
-1.2055905e-07 0.075903125 -0.37993833 -2.1073917e-07 1.1243477e-07 -3.516195e-08 1.6009741e-07 3.3547668e-08
-3.4254704e-08 1.5123655e-07 -2.431517e-07 -1.612529e-07 -5.360313e-08 1.7598353e-07 2.5021365e-07 6.807956e-08
-1.597582e-07 8.1753555e-08 6.906908e-08 -1.361116e-07 -7.0864964e-08 -9.999038e-10 -1.5954226e-08 6.306442e-08
-6.1756387e-09 -3.3896941e-07 -1.414135e-07 2.6201228e-08 7.0153234e-08 3.4388556e-08 7.2091424e-08 -1.9604363e-08
-1.8744551e-07 -2.0585546e-07 -9.4628625e-08 -4.902907e-08 -7.60832e-08 1.873576e-08 -9.633524e-08 -3.2187312e-08
00000000: 7932 c6b2 b0bd 98b3 07c2 8533 8677 6a34
00000010: 8ea6 6534 d2a5 4034 7cf4 e933 528f 00b3
00000020: 0a64 a5b3 c9b3 2e33 49fe 2a34 1564 07b4
00000030: 18dc 3233 2c83 6332 d315 a3b3 ee3e e0b3
00000040: a55e b0b3 3c94 47b4 acf7 2bb4 f346 1e3e
00000050: 8bfc d5b3 c529 9a33 4812 0534 1cf8 e53e
00000060: d26a 6cb3 117e febd 0e94 d93e fa3c 2a34
00000070: 22c1 6134 b6fa 31b4 5fac 2233 8f27 53b4
00000080: d79e 84b4 1788 8db3 690c 2d34 95c5 28bd
00000090: d548 aab3 fd35 3534 ac54 8f33 27bd 263e
000000a0: fe16 5db4 f66d e6bd 0d01 203e a857 97b4
000000b0: a3f5 81b4 5870 bc33 35c8 ffb3 9d1e 9e32
000000c0: 466c 9fb3 f254 5232 4cc1 0e34 7c9a 22b4
000000d0: 83e6 ebb2 c43b 03b5 6cf0 45b4 5977 d9b3
000000e0: 615c 6c33 4f86 28b4 3649 3e34 f3d1 d830
000000f0: f66c af31 223e fd33 4c16 9fb3 1b0e afb3
00000100: fa71 8d33 dc20 1c34 761a 4cb2 3ec7 f739
00000110: 6aff 2e31 c2a7 6334 33f2 e2b1 4281 413b
00000120: c7ad 4b34 7b05 a23b 15ef 8d38 93f2 15b4
00000130: ec41 91b3 3df2 3a34 abbd c7b3 c028 8933
00000140: 815e a8b3 e6ea 7334 d96b cbb3 9cd4 ea3e
00000150: 7430 d4b3 ff1e c333 c6f7 0eb4 e2a4 c4be
00000160: 0573 01b4 1973 9b3d 4787 c2be 8b47 62b4
00000170: ab73 f133 f904 17b3 3ee7 2b34 0d16 1033
00000180: 721f 13b3 9663 2234 848a 82b4 dc24 2db4
00000190: 4439 66b3 fcf5 3c34 1a55 8634 2233 9233
000001a0: 008a 2bb4 7e90 af33 2153 9433 1226 12b4
000001b0: 6d2e 98b3 fd6c 89b0 b70b 89b2 086e 8733
000001c0: 7e31 d4b1 9afb b5b4 72d7 17b4 1c11 e132
000001d0: 26a7 9633 9eb2 1333 aed0 9a33 7366 a8b2
000001e0: a144 49b4 1e09 5db4 a336 cbb3 0894 52b3
000001f0: 2e63 a3b3 5ff0 a032 dce0 ceb3 533e 0ab3

bias f4 [8]
1.1478282e-07 -0.14580104 -0.15040109 -1.1471927e-07 0.0052028093 0.10420647 -6.151888e-08 -4.854987e-08
00000000: 867e f633 de4c 15be be02 1abe 965b f6b3
00000010: 547c aa3b 346a d53d 5d1c 84b3 2685 50b3

weight_ih_l0 f4 [72, 19]
-0.042284843 0.28239772 0.025869654 3.0386154e-06 3.2549988e-06 0.208204 -1.985673e-07 0.041532546
0.10438107 -9.183044e-08 0.02747027 0.0003947706 -2.391689e-07 6.2532564e-08 -5.2832544e-05 1.5357892e-07
-5.5094954e-08 0.06283161 1.3704261e-05 -0.15648684 0.3788144 0.10484067 6.3529487e-06 1.5889643e-06
0.0016170936 8.450297e-06 0.048357554 0.005185679 -1.5725664e-07 -0.06429014 -0.0042248117 1.8648015e-07
9.681175e-06 0.14695987 6.944252e-08 -1.8449755e-07 -0.26222435 -0.0041384418 -0.031663246 0.11881966
0.07396839 1.7551138e-05 4.434871e-05 0.025114233 -2.084886e-05 -0.25203112 0.012074529 -1.984529e-09
-0.05404819 -0.0025847678 6.0350374e-08 -4.4642825e-06 0.17394435 1.2336533e-07 -1.0569952e-07 0.301794
2.431329e-06 -0.01904144 -0.22759159 0.03283643 0.00015918442 0.00021543725 0.0145988 2.564177e-06
1.3122005e-05 0.003093341 7.51364e-08 0.27214813 -1.6654469e-05 -5.216687e-08 -1.9490785e-06 -0.016676903
7.079005e-08 3.0547074e-08 0.1193009 0.29000026 0.12529938 -0.04048499 0.19618858 1.2898409e-05
3.9472736e-05 0.22124726 -5.1195475e-06 0.1019744 -8.5541265e-05 8.315518e-10 0.0084653 6.773979e-05
1.06391546e-07 1.1967462e-06 -0.06466593 -1.8508493e-07 4.2383382e-07 -0.3062771 0.12808858 -0.13229854
0.19085015 0.00054415275 3.7244848e-07 1.3926666e-05 -0.45247635 1.2570106e-06 -0.28280428 0.016545221
-4.776326e-08 0.45187756 0.026161049 -7.9231e-08 -1.4863472e-06 -0.003085301 -3.5921065e-08 8.4717506e-08
0.04814897 -4.789854e-07 0.12422778 -0.045549776 -0.0012745656 -3.2682206e-06 -9.615248e-06 -0.29173893
-0.0019358895 -0.2985831 -0.13361189 7.054174e-08 0.006987488 0.0033695097 1.4774409e-07 -1.5351625e-06
0.3634306 4.211499e-07 1.394386e-07 0.14707027 -0.00027831426 0.14101799 -0.1331036 -0.0030786307
0.00011308965 2.6631094e-05 0.0431857 0.016330628 -0.4599793 -0.01167823 -2.1876001e-07 -0.3170746
-0.12637793 -1.2325472e-07 2.855371e-06 -0.19842736 -2.4446277e-07 -3.017604e-08 -0.6041946 8.7246104e-07
-0.10769589 -0.02065731 0.021263579 0.00013771684 0.00017461416 0.35210854 -1.8722166e-07 -0.13425769
0.03858202 1.1040865e-07 0.08984023 6.5915087e-06 2.1926942e-07 1.84602e-07 0.044583518 -7.691364e-08
-6.4099574e-08 0.16755165 3.1962738e-06 -0.16278851 0.0618851 0.010044616 -0.0001012466 -0.0001697987
-1.646864e-05 9.792361e-06 0.0017162601 -0.031756163 3.7145605e-07 0.00086162117 7.294167e-07 2.6184361e-08
2.2372753e-06 0.23321165 8.016877e-09 -2.6179868e-07 -0.5485155 -2.7198415e-05 -0.038798306 -0.35881734
0.0007027542 4.2793134e-05 0.00011128945 -0.21731623 -0.0071940976 0.00050238834 0.0755285 -5.638414e-08
0.16174427 -8.576806e-05 7.337228e-08 5.7529135e-08 -0.015402318 9.501031e-08 7.633628e-08 -0.23469119
9.84536e-07 0.120478995 0.0049916785 -5.3524705e-05 -6.037121e-06 -5.1762922e-06 -0.017738525 -0.0012169662
-0.35050324 0.0093967505 4.2607365e-07 -0.065320894 -0.017432394 -1.4039995e-07 3.3383435e-06 -0.055525247
-7.338987e-08 5.5402234e-09 -0.6325148 -0.37339756 -0.051720582 -0.22014327 -0.009098613 -0.0039936053
-0.003972266 -0.14663967 0.046733767 0.36887863 -0.080742925 -6.5729225e-08 -0.37994474 -0.04069554
1.3633489e-07 -5.876943e-07 0.26142082 6.144634e-08 7.213483e-08 -0.46899822 6.963475e-05 -0.05049444
-0.5024822 -0.015812865 -0.00010539699 -9.743794e-05 0.28203377 0.022369433 0.11797486 -0.01785966
00000000: df32 2dbd 6f96 903e 99ec d33c 04eb 4b36
00000010: 7470 5a36 6e33 553e c435 55b4 081e 2a3d
00000020: bec5 d53d 5134 c5b3 5509 e13c 37f9 ce39
00000030: 2067 80b4 a449 8633 8398 5db8 74e7 2434
00000040: 8ba1 6cb3 dcad 803d 5aeb 6537 163e 20be
00000050: f6f3 c13e b5b6 d63d 6a2b d536 6644 d535
00000060: a8f4 d33a c0c5 0d37 9212 463d a1ec a93b
00000070: 60da 28b4 8daa 83bd 4a70 8abb 463b 4834
00000080: 546c 2237 a67c 163e 6e20 9533 4d1a 46b4
00000090: 4542 86be c49b 87bb 52b1 01bd b957 f33d
000000a0: bd7c 973d c83a 9337 1103 3a38 5dbc cd3c
000000b0: 96e4 aeb7 390a 81be 3fd4 453c 3460 08b1
000000c0: a361 5dbd 3565 29bb f899 8133 e5cb 95b6
000000d0: 781e 323e 6776 0434 edfc e2b3 be84 9a3e
000000e0: ea29 2336 cbfc 9bbc c50d 69be 7e7f 063d
000000f0: beea 2639 ffe6 6139 ce2f 6f3c 3a14 2c36
00000100: 9526 5c37 a6b9 4a3b ac5a a133 0057 8b3e
00000110: 33b5 8bb7 150e 60b3 eacc 02b6 009e 88bc
00000120: 3e05 9833 dd32 0333 0854 f43d ea7a 943e
00000130: 7b4e 003e 97d3 25bd a9e5 483e 3f66 5837
00000140: 878f 2538 a48e 623e 94c8 abb6 f4d7 d03d
00000150: 9e64 b3b8 4293 6430 0bb2 0a3c 860f 8e38
00000160: 5f79 e433 e39f a035 926f 84bd c2bb 46b4
00000170: 478b e334 5ad0 9cbe a729 033e 4579 07be
00000180: 396e 433e 79a5 0e3a eef4 c734 93a6 6937
00000190: fbaa e7be 8eb6 a835 b9cb 90be d889 873c
000001a0: 4224 4db3 7f5c e73e b24f d63c b425 aab3
000001b0: 807e c7b5 c332 4abb a147 1ab3 f1ed b533
000001c0: db37 453d a093 00b5 226b fe3d 6792 3abd
000001d0: 530f a7ba 9a53 5bb6 2d51 21b7 ce5e 95be
000001e0: acbd fdba e2df 98be 8ed1 08be bb7c 9733
000001f0: 4cf7 e43b fed2 5c3b 96a3 1e34 c80b ceb5
00000200: 9313 ba3e 671a e234 97b8 1534 9799 163e
00000210: b5ea 91b9 0567 103e 4f4c 08be dac2 49bb
00000220: 8b2a ed38 d765 df37 7de3 303d cfc7 853c
00000230: 6882 ebbe 0c56 3fbc 4be4 6ab4 9a57 a2be
00000240: 3769 01be 0058 04b4 e69e 3f36 8b30 4bbe
00000250: b53e 83b4 e89a 01b3 7fac 1abf 1133 6a35
00000260: aa8f dcbd 8539 a9bc f530 ae3c 1568 1039
00000270: a218 3739 9247 b43e 1907 49b4 d97a 09be
00000280: 2e08 1e3d cc19 ed33 28fe b73d a12c dd36
00000290: 5270 6b34 0337 4634 359d 363d b92b a5b3
000002a0: 1da7 89b3 a992 2b3e 917f 5636 08b2 26be
000002b0: 3b7b 7d3d 2c92 243c 5b54 d4b8 fe0b 32b9
000002c0: 2326 8ab7 df49 2437 22f4 e03a c012 02bd
000002d0: 886c c734 6bde 613a 22cd 4335 05ec e032
000002e0: 1924 1636 09cf 6e3e 99ba 0932 568d 8cb4
000002f0: 836b 0cbf 2728 e4b7 f9ea 1ebd e8b6 b7be
00000300: 0939 383a c77c 3338 1264 e938 2588 5ebe
00000310: 77bc ebbb b6b2 033a b0ae 9a3d 042b 72b3
00000320: 4aa0 253e 60de b3b8 d690 9d33 f415 7733
00000330: 015a 7cbc 7808 cc33 50ee a333 e352 70be
00000340: 6624 8435 b1bd f63d 3c91 a33b b77f 60b8
00000350: 7992 cab6 03b0 adb6 6250 91bc 9c82 9fba
00000360: 2975 b3be d4f4 193c 1ebf e434 f6c6 85bd
00000370: 61ce 8ebc d8c0 16b4 4e08 6036 716e 63bd
00000380: 829a 9db3 525c be31 7dec 21bf f72d bfbe
00000390: f6d8 53bd 3d6d 61be 5912 15bc cadc 82bb
000003a0: c829 82bb b628 16be e86b 3f3d a9dd bc3e
000003b0: 8c5c a5bd 0627 8db3 1e88 c2be 5eb0 26bd
000003c0: 7363 1234 0bc2 1db5 f3d8 853e 7cf4 8333
000003d0: 8be8 9a33 8920 f0be df08 9238 42d3 4ebd
000003e0: aca2 00bf fb89 81bc 9408 ddb8 9957 ccb8
000003f0: bb66 903e 1a40 b73c ce9c f13d 6c4e 92bc

weight_hh_l0 f4 [72, 18]
-0.0038552762 -0.0032314104 -0.59164757 0.104520805 0.72467893 0.0078303 -0.4987674 0.17631784
-0.00013879736 -0.6094133 0.017036807 -0.00029568563 0.057958536 0.039271716 0.35464364 0.059388608
0.098835714 -0.002781128 0.124134585 -0.29839736 0.058908362 -0.21054582 0.05206602 0.5744473
0.39734608 -0.21131995 -0.7556584 0.026142184 -0.3435385 -0.052606955 -0.221097 -0.0811471
0.54175025 -0.29842415 -0.16873151 0.109134115 0.47080374 0.5667218 -0.10632057 -0.16961181
0.047887016 0.71899825 -0.22497869 -0.44585466 0.09943363 0.07862676 -0.29206705 0.14536366
-0.20019737 -0.020528197 -1.6847084 0.07045923 -0.0665923 -0.00029723314 0.6487348 0.04341528
0.0964125 -0.012964486 -0.28609377 0.011532152 -0.6814629 -0.00043099586 0.24319717 0.1163595
-0.10058989 0.75026256 0.019295894 -0.07609214 -0.32896498 -0.12692463 0.00015462827 -0.113129355
0.013814587 0.15359257 -0.029574178 -0.007891965 -0.20786251 0.0017709166 0.002162393 -0.011187103
0.018418131 -0.19435586 -0.06330056 0.25878873 -0.4015986 -0.38015172 -0.3534285 0.13864022
0.014500251 -0.40128028 0.059891567 -0.11988068 -0.12881485 -0.003955003 -0.00047525542 -0.008548177
-0.3456173 -0.2490059 -0.014570441 -0.09790534 0.14575252 -0.43875313 -0.32828173 0.0036875282
-0.1417821 -0.13479428 0.018264228 0.043092232 0.010099306 0.36434534 0.005987999 -0.18420891
-0.088723674 0.56398475 -0.036060452 -0.16156825 0.01854492 -0.2480289 0.0010794089 -0.21384175
-0.4239111 -0.25709432 -0.03319085 0.032227848 0.06289685 -0.0021345732 0.17196977 -0.08896678
0.25071263 -0.16185246 0.14402522 -0.42122564 -0.2266863 -0.09422924 -1.1799592 -0.5071578
-1.3322209 0.17321308 -0.0017968972 -0.49377868 -0.31737697 0.07772118 -0.16495378 -0.01677
-0.12138233 1.0324641 0.15075503 -0.35345808 0.0005830613 0.23959179 0.00039723763 0.022222124
0.012643073 -0.3811356 0.07929499 0.47892058 0.19043219 0.23843364 -0.44023108 0.048897877
0.42718056 -0.28237146 0.0025755242 0.20566568 0.22606419 -0.27617246 -0.010755647 -0.00035891755
0.24335296 -0.15353037 -0.5334946 0.32422778 0.29584855 -0.00024280223 0.21890682 -0.180555
0.009065648 -0.0007475265 0.08615186 0.005810026 0.4822537 0.3728805 0.019978344 -0.09660283
0.12491034 -0.20476206 0.10405301 -0.24355316 -0.26990682 -0.41805553 0.12403553 -0.44836855
-0.058055285 0.08086789 0.03723204 0.08314799 -0.320303 0.00013862108 0.5564642 0.70158184
1.0248605 -0.17562222 -0.14750308 0.027382595 -0.1200667 0.017064307 -0.23174942 -0.24842511
-0.6243684 0.00039174024 -0.8438741 -0.2060624 -0.0037374727 0.20011869 0.00017330577 0.05262786
0.004892669 0.120966054 -0.24391079 -0.032569256 0.0075137448 0.4279472 -0.0021709402 0.09718067
0.44382563 -0.48984486 0.16406414 0.5322997 -0.72158664 0.26835665 0.27738783 0.21816868
-0.024390705 -0.6221473 0.3131684 0.14012985 0.5126654 -0.08351561 -0.37602288 -0.1762736
-0.05574972 0.31457114 0.029975904 -0.47837588 0.09852348 -0.016515028 0.09825372 0.3241466
0.7830638 0.6628049 -0.44303685 0.18911642 -0.2797388 0.1539573 -0.14928591 -0.02077864
00000000: cda8 7cbb 12c6 53bb 3776 17bf 010f d63d
00000010: 8f84 393f a94a 003c 715e ffbe aa8c 343e
00000020: 228a 11b9 8302 1cbf c690 8b3c 4106 9bb9
00000030: ee65 6d3d 61db 203d da93 b53e 7841 733d
00000040: 616a ca3d 9643 36bb 463a fe3d 8ac7 98be
00000050: e549 713d 5399 57be 2e43 553d fa0e 133f
00000060: f270 cb3e 4264 58be d472 41bf 2228 d63c
00000070: 47e4 afbe 647a 57bd 4167 62be 7330 a6bd
00000080: 25b0 0a3f 0dcb 98be f4c7 2cbe b581 df3d
00000090: 300d f13e ae14 113f 99be d9bd b8ae 2dbe
000000a0: 2d25 443d 4510 383f d060 66be 1047 e4be
000000b0: dca3 cb3d 1107 a13d d089 95be 36da 143e
000000c0: 8a00 4dbe c02a a8bc 86a4 d7bf ee4c 903d
000000d0: 8b61 88bd f5d5 9bb9 7c13 263f 38d4 313d
000000e0: eb73 c53d ff68 54bc e27a 92be 5af1 3c3c
000000f0: 5a74 2ebf 49f7 e1b9 ae08 793e e44d ee3d
00000100: 1202 cebd 3511 403f 6c12 9e3c 32d6 9bbd
00000110: 196e a8be 88f8 01be b623 2239 5db0 e7bd
00000120: 9456 623c 5f47 1d3e 8c45 f2bc 4d4d 01bc
00000130: e9d9 54be 1a1e e83a efb6 0d3b 1c4a 37bc
00000140: 9fe1 963c 3905 47be b9a3 81bd f57f 843e
00000150: 559e cdbe 3fa3 c2be 95f4 b4be b4f7 0d3e
00000160: 7692 6d3c 9c74 cdbe dc50 753d 0184 f5bd
00000170: 0ae8 03be f898 81bb b42b f9b9 a70d 0cbc
00000180: c0f4 b0be 67fb 7ebe dcb8 6ebc 9882 c8bd
00000190: 2640 153e 40a4 e0be 8b14 a8be 75aa 713b
000001a0: 542f 11be 8307 0abe dd9e 953c 7b81 303d
000001b0: 8f77 253c 798b ba3e fa36 c43b 43a1 3cbe
000001c0: c2b4 b5bd 4e61 103f 20b4 13bd 2672 25be
000001d0: 84eb 973c 4afb 7dbe f47a 8d3a 55f9 5abe
000001e0: e00a d9be dea1 83be 21f3 07bd 5901 043d
000001f0: 10d0 803d 32e4 0bbb d818 303e 3734 b6bd
00000200: 685d 803e a7bc 25be 597b 133e e3aa d7be
00000210: 7420 68be 43fb c0bd e708 97bf 18d5 01bf
00000220: 3786 aabf c55e 313e dd85 ebba 8fd0 fcbe
00000230: 3c7f a2be 482c 9f3d a5e9 28be 3d61 89bc
00000240: 4d97 f8bd c927 843f 875f 1a3e 75f8 b4be
00000250: 95d8 183a 8d57 753e 5544 d039 2c0b b63c
00000260: e424 4f3c 3524 c3be 6965 a23d 1435 f53e
00000270: a800 433e f327 743e f865 e1be 2449 483d
00000280: 69b7 da3e fe92 90be 20ca 283b 069a 523e
00000290: 5f7d 673e 7a66 8dbe 7438 30bc 192d bcb9
000002a0: 8531 793e 1137 1dbe 1a93 08bf 2f01 a63e
000002b0: 7679 973e ba98 7eb9 1c29 603e 69e3 38be
000002c0: 1588 143c a7f5 43ba 6370 b03d 0862 be3b
000002d0: f5e9 f63e 31ea be3e a0a9 a33c b4d7 c5bd
000002e0: fed0 ff3d 25ad 51be bf19 d53d 0066 79be
000002f0: 3a31 8abe 600b d6be 5706 fe3d 9090 e5be
00000300: 61cb 6dbd 109e a53d a080 183d 7e49 aa3d
00000310: c1fe a3be d05a 1139 7074 0e3f de9a 333f
00000320: a12e 833f 50d6 33be 0c0b 17be 7751 e03c
00000330: 88e5 f5bd 72ca 8b3c b84f 6dbe 2763 7ebe
00000340: 9cd6 1fbf 7c62 cd39 2208 58bf 0602 53be
00000350: 63f0 74bb eaeb 4c3e 6ab9 3539 5090 573d
00000360: af52 a03b 0dbd f73d c0c3 79be 5767 05bd
00000370: dc35 f63b e51b db3e 5546 0ebb a906 c73d
00000380: 1d3d e33e f2cc fabe 6e00 283e cb44 083f
00000390: e7b9 38bf 0b66 893e c705 8e3e 9c67 5f3e
000003a0: 04cf c7bc 0c45 1fbf 9c57 a03e 337e 0f3e
000003b0: 0a3e 033f 3b0a abbd 1286 c0be 1181 34be
000003c0: d259 64bd 780f a13e 0790 f53c afed f4be
000003d0: aec6 c93d 864a 87bc 3f39 c93d 8bf6 a53e
000003e0: df76 483f 95ad 293f bad5 e2be bca7 413e
000003f0: ed39 8fbe fca6 1d3e 68de 18be f737 aabc

bias_ih_l0 f4 [72]
-0.086459674 -0.09639441 -0.031939752 -0.20317426 -0.1946821 -0.2415532 -0.4683122 -0.20982316
-0.30991632 -0.015777012 -0.34541416 -0.35636678 -0.14488634 -0.15718897 -0.39666367 -0.33937183
-0.55546385 -0.19029741 0.07805565 0.41019985 0.23857939 0.36623073 0.66467196 0.3535769
0.4312342 0.53183556 0.19648837 0.118498385 0.13853988 0.40573132 0.7571628 0.5118295
0.12367894 0.23437086 0.13525985 0.7890776 -0.090443835 -0.08560068 -0.003717776 0.008856294
-0.0015555283 -0.22045763 0.062677875 0.051587816 -0.14890666 0.26280525 0.036821805 0.14564559
-0.0351634 0.00075607805 -0.36998332 -0.100539505 0.051796813 0.04441859 0.006256513 0.23501956
-0.20652352 -0.0013506974 0.066277236 0.19245501 0.060654715 0.1245956 0.019547744 0.37013423
0.00855499 0.29128155 0.04998154 0.046752855 0.036123797 0.13534787 -0.09786077 0.10983272
00000000: c511 b1bd 6f6a c5bd 42d3 02bd ea0c 50be
00000010: bf5a 47be b959 77be 9ec6 efbe e2db 56be
00000020: 5aad 9ebe cb3e 81bc 20da b0be b575 b6be
00000030: 165d 14be 25f6 20be 8017 cbbe 25c2 adbe
00000040: e132 0ebf 53dd 42be a4db 9f3d b705 d23e
00000050: 284e 743e 9882 bb3e f127 2a3f 0808 b53e
00000060: bbca dc3e 6026 083f 3f34 493e 48af f23d
00000070: 66dd 0d3e 04bc cf3e 6cd5 413f 4207 033f
00000080: 624b fd3d eafe 6f3e 8f81 0a3e fd00 4a3f
00000090: 9e3a b9bd 694f afbd eea5 73bb fd19 113c
000000a0: dee2 cbba a5bf 61be 425d 803d bf4d 533d
000000b0: fd7a 18be 698e 863e 76d2 163d 1e24 153e
000000c0: 7f07 10bd 8a33 463a 746e bdbe a8e7 cdbd
000000d0: e528 543d 44f0 353d 6f03 cd3b f8a8 703e
000000e0: e77a 53be e209 b1ba 5cbc 873d ed12 453e
000000f0: 1471 783d fa2b ff3d 9722 a03c 3c82 bd3e
00000100: 3b2a 0c3c db22 953e 71b9 4c3d ec7f 3f3d
00000110: 8cf6 133d a298 0a3e 3a6b c8bd faef e03d

bias_hh_l0 f4 [72]
-0.08605818 -0.09653433 -0.03202105 -0.2031968 -0.19534078 -0.24070154 -0.46804437 -0.20923938
-0.30986795 -0.01597097 -0.34558156 -0.35669693 -0.1449196 -0.15725969 -0.3962039 -0.33937523
-0.554024 -0.19045244 0.0773967 0.41057268 0.2376167 0.364989 0.6647015 0.35257763
0.43198848 0.53176785 0.19659334 0.11700686 0.1386623 0.40590632 0.7571829 0.51241183
0.123513885 0.23437932 0.13566965 0.789149 -0.09273902 -0.08604485 -0.0031629724 0.0057724956
-0.0009966826 -0.2201742 0.062803306 0.052240524 -0.14332601 0.26028898 0.03648067 0.14575075
-0.03447235 0.0015278253 -0.36936498 -0.100223735 0.052558254 0.044268254 0.006256753 0.2348676
-0.2068196 -0.0013494461 0.06627134 0.19264606 0.05967198 0.12460594 0.019544078 0.37072596
0.008556774 0.29128104 0.049985208 0.046612278 0.036122903 0.13535306 -0.09887872 0.109885134
00000000: 453f b0bd cab3 c5bd 8128 03bd d212 50be
00000010: 6a07 48be 777a 76be 83a3 efbe d942 56be
00000020: 03a7 9ebe 8dd5 82bc 11f0 b0be fba0 b6be
00000030: ce65 14be af08 21be 3ddb cabe 97c2 adbe
00000040: 84d4 0dbf f705 43be 2982 9e3d 9536 d23e
00000050: cb51 733e d7df ba3e e129 2a3f 0e85 b43e
00000060: 982d dd3e f021 083f c44f 493e 4ba1 ef3d
00000070: 7dfd 0d3e f4d2 cf3e bdd6 413f 6c2d 033f
00000080: d9f4 fc3d 2201 703e fcec 0a3e ab05 4a3f
00000090: f5ed bdbd 4838 b0bd df49 4fbb 3427 bd3b
000000a0: 1ea3 82ba 5875 61be 059f 803d 29fa 553d
000000b0: 0ec4 12be 9944 853e c16c 153d af3f 153e
000000c0: e132 0dbd 4f41 c83a 681d bdbe 1a42 cdbd
000000d0: 5347 573d a152 353d 7305 cd3b 2281 703e
000000e0: 84c8 53be e6df b0ba 45b9 873d 0245 453e
000000f0: 9b6a 743d 6631 ff3d e71a a03c cbcf bd3e
00000100: b631 0c3c ca22 953e 4abd 4c3d 84ec 3e3d
00000110: 9cf5 133d fe99 0a3e ed80 cabd 750b e13d

weight f4 [16, 21]
0.03561994 -1.5909063 0.048038173 0.005862895 0.035835966 0.035144567 0.034579862 0.06806978
0.073077664 0.10847188 0.1418277 0.20594355 0.2969111 0.4272761 0.11853805 -0.0128575
0.0005817736 -0.014422089 -0.0253719 -0.01809073 -0.03711366 0.041280877 0.9977027 -0.2832386
-0.23693322 -0.26290148 -0.22850637 -0.22846995 -0.21152306 -0.1783462 -0.1928311 -0.18425666
-0.15661213 -0.1527527 -0.11248741 0.13940588 0.26744014 0.22665778 0.19251658 0.19904497
0.34130624 0.048272457 -0.018964812 0.7968714 -0.09569205 -0.037356246 -0.047448244 -0.0701203
-0.06760375 -0.058351558 -0.06053317 -0.10232341 -0.1053542 -0.1303298 -0.16798188 -0.2623424
-0.04283336 0.001059565 0.002172651 0.008369548 0.0071743885 0.042817827 0.103405446 -0.016480993
-1.4799021 -0.025685454 -0.049569007 -0.006630605 0.0030936059 0.004397347 0.03690346 0.05635286
0.0916366 0.1219171 0.17762384 0.27347904 0.40349877 0.11092251 0.000343322 0.030892642
0.02405737 0.02765927 0.09265474 0.006193615 0.0043545878 -1.5971078 0.1062184 0.042351652
0.05089023 0.029510401 0.06669258 0.09188117 0.0927528 0.12052362 0.1630792 0.20556329
0.30514634 0.417402 0.09183654 -0.054134943 -0.015276087 -0.02298145 -0.02287978 -0.051693745
0.13460839 -0.0380153 0.7873122 -0.11309093 -0.05362242 -0.050762583 -0.05827527 -0.051198963
-0.031725574 -0.027185893 -0.061852228 -0.0700524 -0.11912849 -0.1803924 -0.26329005 -0.033265293
0.016549654 0.031436477 0.07168776 0.06737337 0.033240393 0.25378403 -0.0046146316 0.9377336
-0.07032349 -0.026371919 -0.03349471 -0.027000291 -0.013391417 -0.009818467 -0.022296077 -0.059762664
-0.0651826 -0.12860397 -0.20995733 -0.30858418 -0.06817859 -0.010661041 -0.005190229 0.02243834
0.029550964 0.0070243897 0.22306897 0.01430153 -1.5602669 -0.0335318 -0.063851796 -0.032865964
-0.016881349 -0.007513118 0.029382063 0.052815042 0.098937385 0.137942 0.20685281 0.29466185
0.41032442 0.11994048 -0.002660123 0.013642864 0.003958334 0.015182511 0.0524314 -0.043538604
0.019571431 1.2092495 -0.03422474 -0.01656808 -0.04959955 -0.0628886 -0.07360246 -0.09206828
-0.09280283 -0.11646101 -0.11607912 -0.15302373 -0.2247558 -0.33022377 -0.06612143 0.0013640437
-0.016892318 -0.012219937 -0.0044170218 0.05120798 0.21606655 -0.024199734 0.70081884 -0.043099843
-0.0043914854 -0.00821411 -0.044566527 -0.049957033 -0.049457822 -0.050744012 -0.08336024 -0.07683015
-0.09920157 -0.13377826 -0.22824816 -0.03331084 -0.0060468772 -0.013867778 -0.019933991 -0.032920077
-0.015813898 0.016619314 -0.016825717 0.75942516 -0.020140707 -6.406378e-05 -0.00052772585 -0.018494742
-0.027114283 -0.030027103 -0.035979647 -0.07282983 -0.06986354 -0.07734963 -0.10314877 -0.20175426
-0.010888744 -0.00030310667 -0.0051989174 -0.016961057 -0.028559042 -0.0046534813 -0.06863925 0.051723517
1.6079897 0.009426497 0.0012512783 -0.042933628 -0.076569684 -0.07579974 -0.07460755 -0.048024222
-0.107656956 -0.118160844 -0.17686553 -0.25818026 -0.3730567 0.010707332 0.1524719 0.12771422
0.11985933 0.14665839 0.26688895 -0.19533443 -0.026582591 -1.3099966 0.070558384 0.14132848
00000000: 37e6 113d d1a2 cbbf adc3 443d 871d c03b
00000010: bcc8 123d c0f3 0f3d 9da3 0d3d 2b68 8b3d
00000020: bea9 953d 8126 de3d 483b 113e dee2 523e
00000030: bb04 983e efc3 da3e 14c4 f23d 44a8 52bc
00000040: 2a82 183a a04a 6cbc bbd8 cfbc 0333 94bc
00000050: 7e04 18bd 2316 293d 7269 7f3f a604 91be
00000060: 9f9e 72be 069b 86be 93fd 69be 07f4 69be
00000070: 8099 58be 63a0 36be 8475 45be c7ad 3cbe
00000080: ee5e 20be 346b 1cbe cd5f e6bd 6ac0 0e3e
00000090: eaed 883e fa18 683e 1123 453e 72d2 4b3e
000000a0: b1bf ae3e 57b9 453d 185c 9bbc c4ff 4b3f
000000b0: 32fa c3bd dd02 19bd 1759 42bd 3b9b 8fbd
000000c0: d673 8abd 0b02 6fbd a1f1 77bd f08e d1bd
000000d0: f1c3 d7bd 2d75 05be 7103 2cbe be51 86be
000000e0: 0972 2fbd 1ae1 8a3a 0963 0e3b 6e20 093c
000000f0: 2217 eb3b bf61 2f3d 3cc6 d33d 2603 87bc
00000100: 6f6d bdbf 4d6a d2bc df08 4bbd 8c45 d9bb
00000110: 18be 4a3b 9f17 903b 1528 173d 42d2 663d
00000120: f8ab bb3d acaf f93d 06e3 353e 7205 8c3e
00000130: 6497 ce3e 572b e33d e6ff b339 9112 fd3c
00000140: f613 c53c b295 e23c c5c1 bd3d cff3 ca3b
00000150: eeb0 8e3b 076e ccbf 0889 d93d ed78 2d3d
00000160: 4672 503d ccbf f13c 1f96 883d 322c bc3d
00000170: 2ef5 bd3d 16d5 f63d 3cfe 263e 2f7f 523e
00000180: 243c 9c3e b7b5 d53e cc14 bc3d 9abc 5dbd
00000190: 8e48 7abc 9843 bcbc 606e bbbc d2bc 53bd
000001a0: c8d6 093e eeb5 1bbd 4b8d 493f 389c e7bd
000001b0: 2fa3 5bbd 6dec 4fbd 0db2 6ebd 01b6 51bd
000001c0: adf2 01bd f3b4 debc c358 7dbd a277 8fbd
000001d0: a3f9 f3bd c9b8 38be f4cd 86be 3041 08bd
000001e0: 2493 873c 89c3 003d 08d1 923d 0dfb 893d
000001f0: 1427 083d fbef 813e 5636 97bb 4f0f 703f
00000200: c305 90bd ec09 d8bc c031 09bd b72f ddbc
00000210: ad67 5bbc a3dd 20bc 43a6 b6bc b2c9 74bd
00000220: 747e 85bd c2b0 03be 0eff 56be bffe 9dbe
00000230: 37a1 8bbd a6ab 2ebc cc12 aabb 9cd0 b73c
00000240: dd14 f23c da2c e63b 316c 643e f750 6a3c
00000250: d3b6 c7bf a458 09bd bbc4 82bd 769e 06bd
00000260: c14a 8abc 9a30 f6bb a7b2 f03c 9654 583d
00000270: af9f ca3d ab40 0d3e 39d1 533e ebdd 963e
00000280: 0b16 d23e 5ba3 f53d 7555 2ebb 5286 5f3c
00000290: eab4 813b 11c0 783c 4fc2 563d 8955 32bd
000002a0: 4454 a03c b0c8 9a3f 3e2f 0cbd c8b9 87bc
000002b0: e628 4bbd bdcb 80bd e3bc 96bd 4b8e bcbd
000002c0: 690f bebd 1c83 eebd e4ba edbd 41b2 1cbe
000002d0: 6226 66be 1713 a9be ac6a 87bd b6c9 b23a
000002e0: c261 8abc 2136 48bc aabc 90bb 75bf 513d
000002f0: 8d40 5d3e 853e c6bc dd68 333f 7689 30bd
00000300: 73e6 8fbb 7994 06bc 648b 36bd bf9f 4cbd
00000310: 4994 4abd f4d8 4fbd c6b8 aabd 2059 9dbd
00000320: 312a cbbd 2bfd 08be e3b9 69be f370 08bd
00000330: e224 c6bb ad35 63bc 9c4c a3bc 34d7 06bd
00000340: 268c 81bc 3a25 883c 16d6 89bc b069 423f
00000350: 20fe a4bc fb59 86b8 1557 0aba 4982 97bc
00000360: c61e debc 66fb f5bc 655f 13bd ce27 95bd
00000370: 9e14 8fbd 7c69 9ebd aa3f d3bd ab98 4ebe
00000380: b466 32bc 4aea 9eb9 ae5b aabb eaf1 8abc
00000390: a7f4 e9bc 3b7c 98bb bc92 8cbd 0adc 533d
000003a0: 9bd2 cd3f 9871 1a3c ef01 a43a 2cdb 2fbd
000003b0: 91d0 9cbd e53c 9bbd d8cb 98bd 0cb5 44bd
000003c0: 407b dcbd 50fe f1bd 3d1c 35be 3430 84be
000003d0: 4a01 bfbe ce6d 2f3c 9821 1c3e 84c7 023e
000003e0: cf78 f53d 9e2d 163e aba5 883e c005 48be
000003f0: bcc3 d9bc f8ad a7bf ea80 903d 6ab8 103e

bias f4 [16]
0.088688605 -0.0324447 0.16294554 0.22702768 0.08704669 0.09251734 0.13149872 0.16639024
0.11842667 0.16698338 0.15134482 0.18050992 0.17273623 0.14561886 0.099214666 0.27433956
00000000: 5fa2 b53d bce4 04bd 32db 263e f279 683e
00000010: 8945 b23d bb79 bd3d 9aa7 063e 3462 2a3e
00000020: af89 f23d b1fd 2a3e 23fa 1a3e 98d7 383e
00000030: c4e1 303e 1c1d 153e 0f31 cb3d 3c76 8c3e
